serverSide/serverSide/app/data.pth (torch, 17759 bytes, 6 tensors)

l1.weight f4 [8, 305]
0	0x3f899b7d	1.0750576
1	0xbdc45b57	-0.09587734
2	0xbe055142	-0.13019279
3	0x3f027b78	0.5096965
4	0x3b8743e3	0.004127966
5	0xbef09883	-0.46991357
6	0xbedf971f	-0.43669984
7	0xbe39ac95	-0.18132241
8	0x3eff8815	0.4990851
9	0xbc23ad2c	-0.009990018
10	0x3e11c72e	0.14236137
11	0x3cd58314	0.02606348
12	0x3f821523	1.01627
13	0xbd30e6e9	-0.043188963
14	0xbe54cc22	-0.20780995
15	0xbe2739f9	-0.16330709
16	0x3ecae551	0.3962808
17	0xbf179c81	-0.5922318
18	0xbf3b5750	-0.73180103
19	0x3e15ab39	0.14616098
20	0xbeab523e	-0.33461183
21	0x3e0da88e	0.1383383
22	0x3d72158d	0.059102584
23	0x3e8c1cba	0.27365667
24	0x3f831163	1.0239681
25	0xbe8f1cf5	-0.2795178
26	0x3e683e9e	0.22680137
27	0x3c1ec0e5	0.009689544
28	0x3e3154fb	0.17317574
29	0xbd43be89	-0.04778913
30	0x3e07552c	0.13216084
31	0xbe89a5be	-0.26884264
32	0x3deda21e	0.11603187
33	0xbe82d574	-0.25553477
34	0xbea29e20	-0.31761265
35	0xbd7f7fa5	-0.06237759
36	0x3deed126	0.11660986
37	0xbd5e9f0c	-0.054350898
38	0xbe800dbb	-0.25010476
39	0xbf02515a	-0.5090538
40	0xbe02abfe	-0.12760922
41	0xbea2c4f4	-0.31790888
42	0xbf3c8525	-0.7364066
43	0x3fbd4be8	1.478879
44	0x3f1f6266	0.6225952
45	0x3f78dbda	0.97210467
46	0xbd5b54b9	-0.053547595
47	0xbee1b948	-0.4408667
48	0xbedf14cd	-0.43570557
49	0x3ed47e77	0.41502735
50	0xbe429eb5	-0.19005854
51	0xbe92da90	-0.28682375
52	0xbeb358d3	-0.35028705
53	0xbe2a49a7	-0.16629659
54	0xbe928d62	-0.28623492
55	0xbea67be9	-0.3251641
56	0x3e5f4aac	0.21805829
57	0x3f917859	1.1364852
58	0xbdf1571e	-0.117841944
59	0xbe553ee6	-0.20824775
60	0x3f46357b	0.77425355
61	0x3f322768	0.6959138
62	0x3e8fffa1	0.28124717
63	0x3e609572	0.21932009
64	0x3ea46b2b	0.32113013
65	0xbf089a0b	-0.5336005
66	0xbefdd6cb	-0.49577937
67	0xbe06b5fa	-0.13155356
68	0xbf01588b	-0.5052573
69	0xbf04363a	-0.51645243
70	0xbe06cea2	-0.13164762
71	0x3ec873d3	0.39150867
72	0x3f224b33	0.63395995
73	0x3f9da51b	1.2316011
74	0xbf02814e	-0.50978553
75	0xbf0ceffb	-0.5505368
76	0x3e6be361	0.23035957
77	0xbf3a568b	-0.72788304
78	0xbe5b5a8b	-0.21421258
79	0xbde433b3	-0.11142673
80	0xbd5f68fe	-0.054543488
81	0x3e06a074	0.13147146
82	0x3cfc2597	0.030779643
83	0xbd583109	-0.05278114
84	0x3e4b686e	0.19864056
85	0x3ddd2e0c	0.10799798
86	0xbd0621f1	-0.032747213
87	0xbe5ec36c	-0.21754235
88	0x3e210fc7	0.15728675
89	0xbf656fea	-0.8962389
90	0x3b645e8c	0.0034846393
91	0x3f127316	0.5720686
92	0xbd618b1a	-0.0550643
93	0x3e037b4f	0.12840007
94	0xbe2f53c9	-0.17121805
95	0x3e0dfa2d	0.13864966
96	0xbdd878b8	-0.105699
97	0xbf3fa256	-0.7485708
98	0x3e378692	0.17922428
99	0x3e855411	0.260407
100	0xbe12ed72	-0.1434839
101	0x3f93062c	1.1486259
102	0xbf3cc769	-0.73741776
103	0x3dc955fd	0.09830854
104	0x3e5abce8	0.21361125
105	0xbf1e5e82	-0.6186296
106	0xbef00feb	-0.46887144
107	0xbf00a051	-0.50244623
108	0x3e87a0ed	0.26489964
109	0xbcde665a	-0.027148414
110	0xbf38d003	-0.721924
111	0xbf179c70	-0.5922308
112	0xbe9e84bf	-0.30960652
113	0xbceef35c	-0.029168777
114	0xbef3137b	-0.474758
115	0xbf1626aa	-0.58652747
116	0xbe813cb1	-0.25241616
117	0xbdfdadbd	-0.123866536
118	0x3ed7300f	0.42028853
119	0x3ee659b3	0.4499031
120	0x3fbe1fa5	1.4853407
121	0xbcd9f265	-0.02660484
122	0xbd3a8ce7	-0.04554453
123	0xbeb35bca	-0.35030967
124	0x3edb2619	0.42802504
125	0x3ef870c1	0.48523524
126	0x3f53a2c1	0.8267022
127	0xbe8a4db0	-0.27012396
128	0x3cb50c1d	0.022100503
129	0xbeb863e7	-0.3601372
130	0x3f1a291e	0.6021899
131	0x3f5b6189	0.856957
132	0x3ef55611	0.47917226
133	0x3f125bd1	0.5717135
134	0xbdfe3afe	-0.124135956
135	0xbefe0219	-0.49610975
136	0xbe59b2ff	-0.21259688
137	0xbe954e85	-0.29161468
138	0x3eeb6f02	0.4598313
139	0x3efa23eb	0.48855528
140	0x3e97d2c3	0.29652986
141	0x3e5b10b4	0.2139309
142	0x3c849e98	0.016188905
143	0xbe929d8e	-0.2863583
144	0x3ea32543	0.31864366
145	0xbf3d1186	-0.73854864
146	0xbde3f3d1	-0.11130489
147	0x3f952cc8	1.1654291
148	0x3f1069b4	0.5641129
149	0xbf03b328	-0.51445246
150	0xbeea8e6d	-0.45811787
151	0x3e90cc5b	0.2828091
152	0xbee417f7	-0.44549534
153	0xbe1b4724	-0.15163857
154	0xbe9004e3	-0.28128728
155	0xbdc505be	-0.09620236
156	0x3f49a409	0.7876592
157	0x3f81d821	1.0144082
158	0xbea7f228	-0.32801938
159	0xbdbb718e	-0.09152518
160	0x3fb7568a	1.4323285
161	0x3ebc62a3	0.36794004
162	0xbed8edfb	-0.42369065
163	0x3e1a664a	0.15078083
164	0xbf1fa5db	-0.6236245
165	0x3ec2545f	0.37954995
166	0xbf1b7749	-0.6072889
167	0xbddcaa46	-0.107746646
168	0x3ec4d6fa	0.38445264
169	0x3e314baa	0.1731402
170	0xbefa987d	-0.48944464
171	0xbc1fbfc2	-0.0097503085
172	0x3f4f5906	0.80995214
173	0xbb0e3bce	-0.0021703127
174	0x3fe42afe	1.782562
175	0x3d1b1d17	0.03786954
176	0x3eac016e	0.3359484
177	0x3b02ba3b	0.0019947428
178	0xbde388a6	-0.11110048
179	0x3f027085	0.5095294
180	0x3f3cc614	0.73739743
181	0x3f5e97da	0.8695046
182	0xbd98a89a	-0.07454033
183	0xbf0c94f4	-0.54914784
184	0x3e055b74	0.13023168
185	0x3d2cdf35	0.042205054
186	0x3f0f64ec	0.5601337
187	0xbf2aef2a	-0.66771185
188	0x3f256476	0.64606416
189	0xbf06092a	-0.52357733
190	0xbef01df0	-0.4689784
191	0xbed97ad8	-0.42476535
192	0x3f17c2ab	0.59281415
193	0xbf029d98	-0.5102172
194	0x3e5071e6	0.20355949
195	0x3ef839c1	0.48481563
196	0xbe47984d	-0.19491692
197	0x3de8211b	0.11334439
198	0x3fb8731c	1.4410129
199	0x3e91145a	0.2833584
200	0x3fb91526	1.4459579
201	0xbd21b5f3	-0.03948016
202	0x3e16e011	0.14733912
203	0x3da80222	0.08203532
204	0x3f41f56d	0.75765115
205	0xbd3d4c1a	-0.046215154
206	0x3d4a867b	0.049444657
207	0xbe374494	-0.17897254
208	0xbe95bcc3	-0.29245576
209	0xbf07007b	-0.5273511
210	0xbdb48e1d	-0.088161685
211	0x3e2efbd9	0.1708826
212	0x3ee81ea5	0.4533588
213	0x3ec0effd	0.37683097
214	0xbf8a7e21	-1.0819741
215	0x3e964444	0.29348958
216	0xbc7577a7	-0.014982141
217	0xbed89f00	-0.42308807
218	0xbdcdf9d5	-0.10057417
219	0xbdd7fc76	-0.105462
220	0xbde5a7fb	-0.1121368
221	0x3fa0c6a5	1.2560622
222	0x3d8b4143	0.06799557
223	0xbf36a8df	-0.71351427
224	0x3f0cb252	0.54959595
225	0x3dffca93	0.1248981
226	0xbd9babec	-0.07601151
227	0xbefa985e	-0.48944372
228	0xbeddba7c	-0.4330634
229	0x3f43de05	0.7651065
230	0x3ee3ac91	0.44467595
231	0xbf010f32	-0.5041381
232	0x3e9925a7	0.2991154
233	0xbcaec0b0	-0.021332115
234	0xbea6b9a7	-0.32563516
235	0xbdbf8aca	-0.09352644
236	0xbeda044b	-0.425814
237	0xbebb9ab8	-0.3664148
238	0x3f483ae8	0.78214884
239	0x3e26248b	0.16224878
240	0x3e723dc7	0.23656379
241	0xbef871bf	-0.4852428
242	0xbf038663	-0.5137693
243	0xbddd0365	-0.10791663
244	0xbe563b01	-0.20920946
245	0x3e889852	0.2667871
246	0x3e8188a8	0.25299573
247	0xbdf291bf	-0.11844205
248	0xbf02cda6	-0.51095045
249	0x3e923421	0.28555396
250	0x3dddc9f8	0.10829538
251	0xbefc63f6	-0.49295014
252	0xbeed31ef	-0.4632716
253	0x3e7316d2	0.23739174
254	0x3f445617	0.7669386
255	0x3eff4a11	0.49861196

l1.bias f4 [8]
0	0x3f4b17e9	0.7933336
1	0x3f01f271	0.5076056
2	0x3fbc97d1	1.4733831
3	0x3f43ed7f	0.76534265
4	0x3f82a697	1.0207089
5	0x3f986aba	1.190757
6	0x3ef48555	0.47757974
7	0x3f4a9ba5	0.79143745

l2.weight f4 [8, 8]
0	0xbfbbeee0	-1.4682274
1	0xbe491d8e	-0.1964018
2	0xbdaa0ab4	-0.08302823
3	0x3d745363	0.059649836
4	0x3fd297f6	1.6452625
5	0x3fd486f9	1.660369
6	0x3fd83efb	1.689422
7	0x3fcb5f51	1.5888463
8	0xbf07b59f	-0.53011507
9	0xbf8e6a57	-1.1126202
10	0x3fb71e59	1.4306136
11	0x3ffdd430	1.983038
12	0x3c8e289b	0.017353347
13	0x3ef9d9f3	0.48799095
14	0x3f60ce27	0.87814564
15	0x3f8a7e64	1.0819821
16	0x3f508da3	0.8146612
17	0x3f93707e	1.1518705
18	0xbf8224de	-1.0167501
19	0x3facfa74	1.3513932
20	0xbf76b123	-0.9636404
21	0x3f1973a7	0.59942096
22	0x4003a3b0	2.0568657
23	0x402a4391	2.660374
24	0xbe6a5290	-0.22883058
25	0xbf3170b3	-0.6931259
26	0x40341f2f	2.8144033
27	0xbfaa3c3e	-1.3299634
28	0x3f874d20	1.0570412
29	0x3f09572f	0.53648657
30	0xbf35a7de	-0.7095927
31	0x3fc008b5	1.5002657
32	0x3ca409e1	0.020024242
33	0x3e716fe3	0.23577838
34	0xbeb6a775	-0.35674635
35	0x3ef9b500	0.48770905
36	0x3fd3581c	1.6511264
37	0x3fd0e812	1.6320822
38	0xbfdbffa9	-1.7187396
39	0xbfa03ff7	-1.251952
40	0x3f835930	1.0261593
41	0x3fdc363e	1.7204053
42	0xbf0b6b7f	-0.544609
43	0xbf5d18de	-0.8636607
44	0xbf0a7746	-0.54088247
45	0x3fe5fbe6	1.7967498
46	0xbe94f314	-0.29091704
47	0xbf61f53c	-0.8826482
48	0x3d687ca2	0.056759484
49	0xbf19b886	-0.60047185
50	0x40122356	2.2834067
51	0x401c4760	2.4418564
52	0xbf921874	-1.1413713
53	0x3f72e82e	0.9488553
54	0xbfa8d432	-1.3189757
55	0x3da16818	0.078811824
56	0x401aa175	2.4161046
57	0x3f29b4f4	0.6629174
58	0x3eb32459	0.3498867
59	0x3f77af1c	0.9675157
60	0x3f977b42	1.183449
61	0xbfb2496f	-1.392866
62	0x3f9bec9a	1.218158
63	0xbf97e26f	-1.1865977

l2.bias f4 [8]
0	0xbf0facb5	-0.56122905
1	0x3e7e6923	0.24844794
2	0xbf1ad8f7	-0.6048731
3	0x3f86cf11	1.0531942
4	0x3f90bf26	1.1308334
5	0x3f6d4152	0.92677796
6	0x3f9ff686	1.2497108
7	0x3f463f75	0.7744058

l3.weight f4 [28, 8]
0	0xbf5dff44	-0.8671763
1	0xbf035cae	-0.5131329
2	0xc083bfab	-4.117147
3	0x3efc6766	0.49297637
4	0x3e9e2bff	0.3089294
5	0xbd18980a	-0.03725437
6	0x3ec8fc27	0.39254877
7	0xc01a458d	-2.410495
8	0xbf3ed1a4	-0.74538636
9	0x3f017b50	0.50578785
10	0xbffbd667	-1.9674805
11	0x3ebab181	0.3646355
12	0xbf743373	-0.95391005
13	0xc07682ec	-3.8517408
14	0x3f782f74	0.9694741
15	0xc0846096	-4.1367903
16	0xbf86be8b	-1.0526899
17	0x3ed036b7	0.40666744
18	0x3e46812a	0.1938521
19	0xc0757fc6	-3.8359237
20	0xc011cd9c	-2.2781744
21	0xc04fe074	-3.2480745
22	0xbf930916	-1.1487148
23	0x3edc2c0e	0.4300236
24	0x3f4a4b70	0.7902136
25	0xbf19a217	-0.60012954
26	0xbff41b4f	-1.9070834
27	0x3eb0825f	0.34474465
28	0x3f5d59de	0.8646525
29	0xbf0b3bf4	-0.54388356
30	0xc0394f6c	-2.8954725
31	0xc02206c8	-2.531664
32	0xbf836c35	-1.0267397
33	0x3eb08512	0.34476525
34	0xbfefb03c	-1.8725657
35	0xbe18a8f1	-0.14908196
36	0x3e099d17	0.13438831
37	0xc0a8ee6b	-5.2791038
38	0x3eae5337	0.34047863
39	0xbf080a32	-0.53140557
40	0xbf35bf4e	-0.7099503
41	0xbf4914af	-0.78547186
42	0xc0686f69	-3.6318
43	0x3fc3adea	1.5287449
44	0xbfb6499a	-1.4241211
45	0xc03801f6	-2.8751197
46	0xc03de1cf	-2.9669073
47	0xbd8708b0	-0.06593454
48	0x3e5d8a59	0.21634807
49	0xbf00bb78	-0.50286055
50	0x3de3be84	0.11120322
51	0xbe09c570	-0.13454223
52	0xc08999d1	-4.3000264
53	0xc005c9f4	-2.0904512
54	0xc04fa8c9	-3.2446768
55	0x3e2ef8bb	0.1708707
56	0x3f3e8665	0.7442382
57	0x3f3faecf	0.7487611
58	0x3f0967e8	0.53674173
59	0xbe32597e	-0.17416951
60	0xbf8de636	-1.108588
61	0xc082e378	-4.090267
62	0xbf1c22fd	-0.6099089
63	0xc00b2197	-2.1739252
64	0x3f2bf77b	0.671745
65	0x3e4d70e3	0.20062594
66	0x3f2387de	0.6387919
67	0xbff1c81d	-1.8889195
68	0xbff2423c	-1.8926463
69	0xbfa0a77a	-1.255111
70	0xc0127235	-2.2882206
71	0xbf87111b	-1.0552095
72	0xc088c022	-4.2734537
73	0xc00e971d	-2.2279732
74	0xc004c005	-2.07422
75	0x3ec0f01f	0.37683198
76	0x3e941117	0.2891929
77	0x3d9b6e91	0.07589448
78	0xc004b2d3	-2.0734146
79	0x3e93a120	0.28833866
80	0xbfa5af30	-1.2944088
81	0xbda822c4	-0.08209756
82	0xc0784b8e	-3.8796115
83	0x3fb504b8	1.4142065
84	0xbfe40fff	-1.7817382
85	0xc07ccfb7	-3.950178
86	0x3e1d8088	0.15381062
87	0xbf5f44b1	-0.8721419
88	0x3d8c2c9c	0.06844446
89	0x3d8d3e44	0.06896642
90	0xbef6f9d2	-0.48237473
91	0xbf447bff	-0.76751703
92	0x3f408fcc	0.75219417
93	0xbf5ff96b	-0.87489957
94	0xbfc306fc	-1.5236506
95	0xbf099aed	-0.53752023
96	0x3e6ad4ae	0.22932693
97	0xbe8e47f0	-0.2778926
98	0xbf07ae5c	-0.53000426
99	0xbed9ee17	-0.4256446
100	0x3e71ec42	0.23625281
101	0xbf002e88	-0.50071
102	0xc0836f49	-4.1073346
103	0xbedd8614	-0.43266356
104	0x3f34835e	0.7051295
105	0xbe170b54	-0.14750415
106	0xc00970e3	-2.147515
107	0x3f85b474	1.0445695
108	0x3f258b9f	0.6466617
109	0xc0501571	-3.2513087
110	0xbf3d6b73	-0.7399208
111	0xc0579924	-3.368722
112	0xc027b89c	-2.6206427
113	0x3ea74a6d	0.3267397
114	0x3d59828d	0.05310302
115	0xc0538345	-3.304887
116	0xc00dd36e	-2.2160296
117	0xc016e992	-2.358006
118	0x3f722a8e	0.94596183
119	0xbde5edb0	-0.11226976
120	0xbf1994ed	-0.5999287
121	0xc043ff45	-3.0624554
122	0xbfc9f9e4	-1.5779386
123	0xbd52076c	-0.05127661
124	0x3f2153fc	0.63018775
125	0x3f801670	1.0006847
126	0xbf28c910	-0.659318
127	0xbfb0c4e3	-1.3810085
128	0xbfa2f121	-1.2729837
129	0x3ef3c0fb	0.4760817
130	0xbeeadccf	-0.4587159
131	0xbfcb81a0	-1.5898933
132	0x3d91f377	0.07126515
133	0xc0389e68	-2.8846684
134	0x3f898144	1.0742574
135	0xc003ba97	-2.0582635
136	0xc02f7bf0	-2.7419395
137	0xc02edb33	-2.7321289
138	0xbe356ca3	-0.17717223
139	0xc084be4f	-4.148231
140	0xbea20e32	-0.31651455
141	0xbe4a90b2	-0.1978176
142	0xbf332dc8	-0.6999173
143	0x3ecf00e9	0.40430382
144	0xbca774c6	-0.020441424
145	0xc005006d	-2.078151
146	0xbc430ef6	-0.011905422
147	0xc030c5af	-2.7620656
148	0xbdcd4065	-0.10022048
149	0x3f35acb8	0.7096667
150	0xbfccf7c5	-1.6013113
151	0xbfbb0a8b	-1.4612592
152	0xbfa30d0e	-1.2738359
153	0x3e007874	0.12545949
154	0xbe6c1d57	-0.23058067
155	0xbd867396	-0.06565015
156	0xc00f2d40	-2.2371368
157	0xbfcec9fe	-1.6155393
158	0xbe40a08d	-0.18811245
159	0xbe22d16e	-0.15900204
160	0x3e24c748	0.16091645
161	0xbf2142e7	-0.6299271
162	0x3ecc1d0d	0.39865914
163	0x3e34de87	0.17663012
164	0xc02e2a7e	-2.7213435
165	0xbd955add	-0.072927214
166	0xbfac31eb	-1.3452734
167	0xbf9d05ec	-1.2267432
168	0xc018e78f	-2.3891332
169	0xbfb16557	-1.3859051
170	0x3ef2ba45	0.47407737
171	0xbe00b79f	-0.12570046
172	0xc0547951	-3.3199046
173	0xbd8f52c3	-0.069982074
174	0xc03e547f	-2.9739072
175	0x3f0dc1dd	0.55373937
176	0xbece8d90	-0.4034238
177	0xbe78bee7	-0.24291573
178	0x3f186ed3	0.59544104
179	0xc03e75c8	-2.9759388
180	0xc0361417	-2.8449762
181	0xbf07b614	-0.53012204
182	0xbf282977	-0.6568827
183	0xbebaac5b	-0.36459622
184	0x3d99e88c	0.07515058
185	0x3d333a71	0.043756906
186	0xbbd7cbcb	-0.0065855733
187	0xc04cf93f	-3.2027128
188	0xbf80ebee	-1.0072
189	0xbe5e1be5	-0.21690328
190	0xbe6eb6af	-0.23311876
191	0xbf9a552a	-1.205724
192	0xc021e723	-2.5297325
193	0xbf57628a	-0.84134734
194	0x3e2ccd50	0.16875196
195	0xbf126206	-0.5718082
196	0xbf09c6b7	-0.5381884
197	0x3e84e3a9	0.2595494
198	0xbe0273f6	-0.12739548
199	0xbf3de277	-0.7417368
200	0xc0297de7	-2.6483095
201	0xbfa6bb94	-1.3025994
202	0x3e4e3c7b	0.20140259
203	0xbfe8a44a	-1.8175137
204	0xbf5bddf3	-0.8588554
205	0x3f81329a	1.0093567
206	0xc050fbbe	-3.2653651
207	0xbee2a089	-0.44263104
208	0xbe3745ef	-0.17897771
209	0xc006a30f	-2.1037023
210	0x3f1ac2a0	0.60453224
211	0xbfe72214	-1.8057275
212	0xc0324c7a	-2.7859178
213	0x3e53fc0a	0.20701614
214	0xc055fe03	-3.3436286
215	0xbe5dee79	-0.21673001
216	0xc082ebf7	-4.0913043
217	0xbe4cb5f1	-0.1999128
218	0xc0112e3f	-2.2684476
219	0xbdc2cce6	-0.095117375
220	0x3da5766a	0.08079226
221	0xbf878cce	-1.0589845
222	0x3f44a13a	0.7680851
223	0xbe82225d	-0.25416842

l3.bias f4 [28]
0	0x3e55b2dd	0.20869012
1	0x3da2afa5	0.07943658
2	0xbe7ec45e	-0.24879596
3	0xbe15499b	-0.1457886
4	0xbf7e4ae3	-0.9933302
5	0xbe78d5c5	-0.24300297
6	0xbd80c998	-0.06288451
7	0xbbbfa427	-0.005848426
8	0xbf7a8e63	-0.97873515
9	0xbde7142e	-0.11283146
10	0x3e93f5d5	0.28898492
11	0xbeb95060	-0.36194134
12	0x3e5795a2	0.21053174
13	0xbd8370a6	-0.0641797
14	0x3d261d90	0.040555537
15	0x3d4132ca	0.047167577
16	0xbdf264d8	-0.11835641
17	0xbeae8e0d	-0.3409275
18	0x3df226c4	0.118238
19	0xbe7fdc1f	-0.24986313
20	0x3d842601	0.06452561
21	0x3e8f9b9e	0.28048414
22	0xbee32d70	-0.44370604
23	0xbed7124c	-0.42006147
24	0x3e179ded	0.14806338
25	0x3c8308cf	0.015995411
26	0xbe4de04f	-0.20105098
27	0xbd01147c	-0.031513676
